Model: "sequential"
_________________________________________________________________
Layer (type)                 Output Shape              Param #   
=================================================================
DC0 (Conv2D)                 (None, 8, 48, 32)         3104      
_________________________________________________________________
dropout (Dropout)            (None, 8, 48, 32)         0         
_________________________________________________________________
DC1 (Conv2D)                 (None, 4, 4, 32)          24608     
_________________________________________________________________
dropout_1 (Dropout)          (None, 4, 4, 32)          0         
_________________________________________________________________
flatten (Flatten)            (None, 512)               0         
_________________________________________________________________
dense (Dense)                (None, 1)                 513       
=================================================================
Total params: 28,225
Trainable params: 0
Non-trainable params: 28,225
_________________________________________________________________
None
Model: "sequential_1"
_________________________________________________________________
Layer (type)                 Output Shape              Param #   
=================================================================
dense_1 (Dense)              (None, 512)               51712     
_________________________________________________________________
reshape (Reshape)            (None, 4, 4, 32)          0         
_________________________________________________________________
conv2d_transpose (Conv2DTran (None, 48, 8, 32)         24608     
_________________________________________________________________
conv2d_transpose_1 (Conv2DTr (None, 96, 96, 32)        24608     
_________________________________________________________________
conv2d (Conv2D)              (None, 96, 96, 4)         6276      
=================================================================
Total params: 107,204
Trainable params: 107,204
Non-trainable params: 0
_________________________________________________________________
None
Model: "sequential"
_________________________________________________________________
Layer (type)                 Output Shape              Param #   
=================================================================
sequential_1 (Sequential)    (None, 96, 96, 4)         107204    
_________________________________________________________________
sequential (Sequential)      (None, 1)                 28225     
=================================================================
Total params: 135,429
Trainable params: 107,204
Non-trainable params: 28,225
_________________________________________________________________
None
>1, 1/47, d=0.729, g=0.645
>1, 2/47, d=0.726, g=0.630
>1, 3/47, d=0.730, g=0.639
>1, 4/47, d=0.735, g=0.633
>1, 5/47, d=0.742, g=0.634
>1, 6/47, d=0.739, g=0.625
>1, 7/47, d=0.732, g=0.624
…
